# YOLOv9

# parameters
nc: 80  # number of classes
depth_multiple: 1.0  # model depth multiple
width_multiple: 1.0  # layer channel multiple
#activation: nn.LeakyReLU(0.1)
#activation: nn.ReLU()

# anchors
anchors: 3

# YOLOv9 backbone
backbone:
  [
     [-1, 1, Silence, []],  #0
     [-1, 1, Silence, []], #1
   # conv down
   [-1, 1, Conv, [32, 3, 2]],  # 2-P1/2

   # conv down
   [-1, 1, Conv, [64, 3, 2]],  # 3-P2/4

   # elan-1 block
   [-1, 1, RepNCSPELAN4, [128, 64, 32, 1]],  # 4

   # conv down
   [-1, 1, ADown, [128]],  # 5-P3/8

   # elan-2 block
   [-1, 1, RepNCSPELAN4, [256, 128, 64, 1]],  # 6

   # conv down
  [-1, 1, ADown, [256]],  # 7-P4/16

   # elan-2 block
   [-1, 1, RepNCSPELAN4, [256, 256, 128, 1]],  # 8

   # conv down
   [-1, 1, ADown, [256]],   # 9-P5/32
     [-1, 1, CBAM, [256]], #10

   # elan-2 block
   [-1, 1, RepNCSPELAN4, [256, 256, 128, 1]],  # 11
  ]

# YOLOv9 head
head:
  [
   # elan-spp block
   [-1, 1, SPPELAN, [256, 128]],  # 12

   # up-concat merge
   [-1, 1, nn.Upsample, [None, 2, 'nearest']], #13
   [[-1, 8], 1, Concat, [1]],  # cat backbone P4 14

   # elan-2 block
   [-1, 1, depthwise_separable_conv, [256, 3, 1]],  # 15

   # up-concat merge
   [-1, 1, nn.Upsample, [None, 2, 'nearest']], #16
   [[-1, 6], 1, Concat, [1]],  # cat backbone P3 17

   # elan-2 block
   [-1, 1, depthwise_separable_conv, [128, 3, 1]],# 18 (P3/8-small)

   # conv-down merge
   [-1, 1, Conv, [128, 3, 2]], #19
   [[-1, 15], 1, Concat, [1]],  # cat head P4 20

   # elan-2 block
    [-1, 1, depthwise_separable_conv, [256, 3, 1]], # 21 (P4/16-medium)

   # conv-down merge
   [-1, 1, Conv, [256, 3, 2]], #22
   [[-1, 12], 1, Concat, [1]],  # cat head P5 23

   # elan-2 block
   [-1, 1, depthwise_separable_conv, [256, 3, 1]],  # 24 (P5/32-large)
   
   # routing
   [6, 1, CBLinear, [[128]]], # 25
   [8, 1, CBLinear, [[128, 256]]], # 26
   [11, 1, CBLinear, [[128, 256, 256]]], # 27
   
   # conv down
   [0, 1, Conv, [32, 3, 2]],  # 28-P1/2

   # conv down
   [-1, 1, Conv, [64, 3, 2]],  # 29-P2/4

   # elan-1 block
   [-1, 1, RepNCSPELAN4, [128, 64, 32, 1]],  # 30

   # conv down fuse
   [-1, 1, Conv, [128, 3, 2]],  # 30-P3/8
   [[25, 26, 27, -1], 1, CBFuse, [[0, 0, 0]]], # 31
     [-1, 1, Silence, []], #32
   # elan-2 block
   [-1, 1, RepNCSPELAN4, [256, 128, 64, 1]],  # 33

   # conv down fuse
   [-1, 1, Conv, [256, 3, 2]],  # 34-P4/16
   [[26, 27, -1], 1, CBFuse, [[1, 1]]], # 35
    [-1, 1, Silence, []], #36
   # elan-2 block
   [-1, 1, RepNCSPELAN4, [256, 256, 128, 1]],  # 37

   # conv down fuse
   [-1, 1, Conv, [256, 3, 2]],  # 38-P5/32
   [[27, -1], 1, CBFuse, [[2]]], # 39
    
   [-1, 1, Silence, []], #40
   # elan-2 block
   [-1, 1, RepNCSPELAN4, [256, 256, 128, 1]],  # 41

   # detect
   [[33, 37, 41, 18, 21, 24], 1, DualDDetect, [nc]],  # DualDDetect(A3, A4, A5, P3, P4, P5)
  ]